2024-10-22 00:03:11,208 - INFO - Interpolation_lstmv2(
  (MLP_layer): Sequential(
    (0): ResidualMLP(
      (input_layer): Linear(in_features=4, out_features=1024, bias=True)
      (hidden_layers): ModuleList(
        (0-7): 8 x Linear(in_features=1024, out_features=1024, bias=True)
      )
      (output_layer): Linear(in_features=1024, out_features=1024, bias=True)
      (bn): InstanceNorm1d(1, eps=1e-05, momentum=0.1, affine=True, track_running_stats=False)
      (activation): ReLU()
    )
  )
  (CNN_block): Sequential(
    (0): Conv1d(1, 32, kernel_size=(3,), stride=(1,), padding=(1,))
    (1): ResidualBlock(
      (conv1): Conv1d(32, 32, kernel_size=(3,), stride=(1,), padding=(1,))
      (relu): ReLU(inplace=True)
      (conv2): Conv1d(32, 32, kernel_size=(3,), stride=(1,), padding=(1,))
      (bn): InstanceNorm1d(32, eps=1e-05, momentum=0.1, affine=True, track_running_stats=False)
    )
    (2): ResidualBlock(
      (conv1): Conv1d(32, 32, kernel_size=(3,), stride=(1,), padding=(1,))
      (relu): ReLU(inplace=True)
      (conv2): Conv1d(32, 32, kernel_size=(3,), stride=(1,), padding=(1,))
      (bn): InstanceNorm1d(32, eps=1e-05, momentum=0.1, affine=True, track_running_stats=False)
    )
    (3): ResidualBlock(
      (conv1): Conv1d(32, 32, kernel_size=(3,), stride=(1,), padding=(1,))
      (relu): ReLU(inplace=True)
      (conv2): Conv1d(32, 32, kernel_size=(3,), stride=(1,), padding=(1,))
      (bn): InstanceNorm1d(32, eps=1e-05, momentum=0.1, affine=True, track_running_stats=False)
    )
    (4): Conv1d(32, 1, kernel_size=(3,), stride=(1,), padding=(1,))
  )
)
2024-10-22 00:18:31,605 - INFO - Epoch [1/50000]|Loss:527.5293469083318|test loss:0.3254071889044363|lr:0.0001|Time:56.50s|
2024-10-22 00:19:25,836 - INFO - Epoch [2/50000]|Loss:0.6166454101744624|test loss:0.26572872886929333|lr:0.0001|Time:54.23s|
2024-10-22 00:20:12,634 - INFO - Epoch [3/50000]|Loss:0.4805531588537723|test loss:0.27907743616194663|lr:0.0001|Time:46.80s|
…
