2024-10-21 21:14:58,987 - INFO - Interpolation_lstmv2(
  (MLP_layer): Sequential(
    (0): ResidualMLP(
      (input_layer): Linear(in_features=4, out_features=1024, bias=True)
      (hidden_layers): ModuleList(
        (0-7): 8 x Linear(in_features=1024, out_features=1024, bias=True)
      )
      (output_layer): Linear(in_features=1024, out_features=1024, bias=True)
      (bn): InstanceNorm1d(1, eps=1e-05, momentum=0.1, affine=True, track_running_stats=False)
      (activation): ReLU()
    )
  )
  (CNN_block): Sequential(
    (0): Conv1d(1, 32, kernel_size=(3,), stride=(1,), padding=(1,))
    (1): ResidualBlock(
      (conv1): Conv1d(32, 32, kernel_size=(3,), stride=(1,), padding=(1,))
      (relu): ReLU(inplace=True)
      (conv2): Conv1d(32, 32, kernel_size=(3,), stride=(1,), padding=(1,))
      (bn): InstanceNorm1d(32, eps=1e-05, momentum=0.1, affine=True, track_running_stats=False)
    )
    (2): ResidualBlock(
      (conv1): Conv1d(32, 32, kernel_size=(3,), stride=(1,), padding=(1,))
      (relu): ReLU(inplace=True)
      (conv2): Conv1d(32, 32, kernel_size=(3,), stride=(1,), padding=(1,))
      (bn): InstanceNorm1d(32, eps=1e-05, momentum=0.1, affine=True, track_running_stats=False)
    )
    (3): ResidualBlock(
      (conv1): Conv1d(32, 32, kernel_size=(3,), stride=(1,), padding=(1,))
      (relu): ReLU(inplace=True)
      (conv2): Conv1d(32, 32, kernel_size=(3,), stride=(1,), padding=(1,))
      (bn): InstanceNorm1d(32, eps=1e-05, momentum=0.1, affine=True, track_running_stats=False)
    )
    (4): Conv1d(32, 1, kernel_size=(3,), stride=(1,), padding=(1,))
  )
)
2024-10-21 21:26:55,800 - INFO - Epoch [1/50000]|Loss:6.945087169047046e-05|test loss:1.59650192276613e-05|lr:0.0001|Time:52.50s|
2024-10-21 21:27:44,720 - INFO - Epoch [2/50000]|Loss:9.20135004119455e-06|test loss:7.556621306931344e-06|lr:0.0001|Time:48.92s|
2024-10-21 21:28:28,828 - INFO - Epoch [3/50000]|Loss:5.170650269994217e-06|test loss:3.5523568748189226e-06|lr:0.0001|Time:44.11s|
…
